…
/figure><figure class="highlight python"><table><tr><td class="gutter"><pre><span class="line">1</span><br></pre></td><td class="code"><pre><span class="line">base_model.summary()</span><br></pre></td></tr></table></figure><pre><code>Model: &quot;vgg16&quot;_________________________________________________________________Layer (type)                 Output Shape              Param #=================================================================input_1 (InputLayer)         [(None, 224, 224, 3)]     0_________________________________________________________________block1_conv1 (Conv2D)        (None, 224, 224, 64)      1792_________________________________________________________________block1_conv2 (Conv2D)        (None, 224, 224, 64)      36928_________________________________________________________________block1_pool (MaxPooling2D)   (None, 112, 112, 64)      0_________________________________________________________________block2_conv1 (Conv2D)        (None, 112, 112, 128)     73856_________________________________________________________________block2_conv2 (Conv2D)        (None, 112, 112, 128)     147584_________________________________________________________________block2_pool (MaxPooling2D)   (None, 56, 56, 128)       0_________________________________________________________________block3_conv1 (Conv2D)        (None, 56, 56, 256)       295168_________________________________________________________________block3_conv2 (Conv2D)        (None, 56, 56, 256)       590080_________________________________________________________________block3_conv3 (Conv2D)        (None, 56, 56, 256)       590080_________________________________________________________________block3_pool (MaxPooling2D)   (None, 28, 28, 256)       0_________________________________________________________________block4_conv1 (Conv2D)        (None, 28, 28, 512)       1180160_________________________________________________________________block4_conv2 (Conv2D)        (None, 28, 28, 512)       2359808_________________________________________________________________block4_conv3 (Conv2D)        (None, 28, 28, 512)       2359808_________________________________________________________________block4_pool (MaxPooling2D)   (None, 14, 14, 512)       0_________________________________________________________________block5_conv1 (Conv2D)        (None, 14, 14, 512)       2359808_________________________________________________________________block5_conv2 (Conv2D)        (None, 14, 14, 512)       2359808_________________________________________________________________block5_conv3 (Conv2D)        (None, 14, 14, 512)       2359808_________________________________________________________________block5_pool (MaxPooling2D)   (None, 7, 7, 512)         0=================================================================Total params: 14,714,688Trainable params: 14,714,688Non-trainable params: 0_________________________________________________________________</code></pre><p>이전과 다르게 <code>classification</code> layer이 삭제되었다. (<code>Flatten</code> ~ <code>Dense</code>)</p><figure class="highlight python"><table><tr><td class="gutter"><pre><span class="l
…
pout(<span class="number">0.3</span>))</span><br><span class="line">model.add(Dense(units = num_classes , activation = <span class="string">&#x27;softmax&#x27;</span>))</span><br><span class="line">model.summary()</span><br></pre></td></tr></table></figure><pre><code>                Model: &quot;sequential_4&quot;                _________________________________________________________________                Layer (type)                 Output Shape              Param #                =================================================================                conv2d_6 (Conv2D)            (None, 28, 28, 75)        750                _________________________________________________________________                batch_normalization (BatchNo (None, 28, 28, 75)        300                _________________________________________________________________                max_pooling2d (MaxPooling2D) (None, 14, 14, 75)        0                _________________________________________________________________                conv2d_7 (Conv2D)            (None, 14, 14, 50)        33800                _________________________________________________________________                dropout (Dropout)            (None, 14, 14, 50)        0                _________________________________________________________________                batch_normalization_1 (Batch (None, 14, 14, 50)        200                _________________________________________________________________                max_pooling2d_1 (MaxPooling2 (None, 7, 7, 50)          0                _________________________________________________________________                conv2d_8 (Conv2D)            (None, 7, 7, 25)          11275                _________________________________________________________________                batch_normalization_2 (Batch (None, 7, 7, 25)          100                _________________________________________________________________                max_pooling2d_2 (MaxPooling2 (None, 4, 4, 25)          0                _________________________________________________________________                flatten (Flatten)            (None, 400)               0                _________________________________________________________________                dense (Dense)                (None, 512)               205312                _________________________________________________________________                dropout_1 (Dropout)          (None, 512)               0                _________________________________________________________________                dense_1 (Dense)              (None, 25)                12825                =================================================================                Total params: 264,562                Trainable params: 264,262                Non-trainable params: 300                _________________________________________________________________</code></pre><p>위의 <code>summary</code>는 다른 data들을 학습시킨 결과로 배포할 수 없는 데이터들이기 때문에 <code>summary</code>를 통해서 param number만
…
